src/Model_free/output/DQN_NN.pth (torch, 14340 bytes, 6 tensors)

network.0.weight f4 [64, 3]
0	0xbf073d9d	-0.5282839
1	0xc00fe22c	-2.2481794
2	0xbeca03f0	-0.3945613
3	0x3f43d732	0.76500237
4	0xbed703b9	-0.41995028
5	0x3ec1a411	0.37820485
6	0xbf69584f	-0.91150373
7	0xbf9f4ffc	-1.2446284
8	0xbe9d0e6c	-0.30675066
9	0xbf8c6634	-1.096869
10	0xbf9ddbf3	-1.2332748
11	0xbed253a7	-0.41079447
12	0xbebf81ae	-0.37403625
13	0xbdb567cf	-0.088576905
14	0x3e46f4b9	0.19429292
15	0xbfdaff4f	-1.7109164
16	0x3fad4ae9	1.3538486
17	0x3f03c6a9	0.51475006
18	0xbf925814	-1.1433129
19	0x3f8c40d2	1.0957282
20	0x3f4a3b50	0.78996754
21	0xbea46cb5	-0.32114187
22	0xbdb7c2f5	-0.08972732
23	0x3d43dffa	0.047821023
24	0xbf9afb7f	-1.2108
25	0x3ff9429b	1.9473451
26	0xbe353c48	-0.17698777
27	0xbfa4dde1	-1.2880212
28	0x3f403ce7	0.7509293
29	0x3eab28a1	0.33429435
30	0xbf277382	-0.65410626
31	0xbfcaafbb	-1.5834879
32	0xbec7cd21	-0.39023688
33	0xbfa4f956	-1.2888591
34	0xbf803d0b	-1.0018629
35	0xbea7c296	-0.32765645
36	0xbe318323	-0.17335181
37	0x4082c84c	4.0869503
38	0x3f89b8e2	1.0759547
39	0xbf22b827	-0.63562244
40	0x3c1c5036	0.009540608
41	0xbe8a6c11	-0.27035573
42	0xbf9e7a93	-1.2381157
43	0x3f602704	0.87559533
44	0x3ebbe403	0.36697397
45	0xbf95da49	-1.170724
46	0x3fe7a3bd	1.8096844
47	0x3ef0a6a2	0.4700213
48	0xbf81c60f	-1.0138568
49	0xbfa1a2b4	-1.2627778
50	0xbea34b3d	-0.3189334
51	0x3e956ff0	0.29186964
52	0x402457ee	2.5678668
53	0x3f13a40b	0.57672185
54	0xbfaa4775	-1.3303057
55	0x40389b5c	2.8844824
56	0x3edd0f1c	0.4317559
57	0xbff2d765	-1.8971983
58	0xbf65c156	-0.8974813
59	0x3eacc4f3	0.3374401
60	0x3f3115da	0.6917397
61	0x3ef0a220	0.46998692
62	0x3f515dc6	0.8178371
63	0xbffc2524	-1.9698834
64	0x3fbeb8ad	1.4900109
65	0x3f3e393a	0.7430607
66	0xbf1b1287	-0.60575145
67	0x405147d7	3.2700098
68	0x3f2b3d9e	0.66890895
69	0xbfae582f	-1.3620661
70	0xc0403dde	-3.003776
71	0xbf303fba	-0.6884724
72	0xbfdb0dc8	-1.7113581
73	0xbf5bb418	-0.85821676
74	0xbf191315	-0.5979474
75	0xbf185f67	-0.5952057
76	0x40094e51	2.145405
77	0x3ea4721d	0.32118312
78	0x400d98bc	2.2124472
79	0xbdf95028	-0.12173492
80	0x3e1cd9f0	0.15317512
81	0xbf3d95d5	-0.7405675
82	0x3fe77223	1.8081707
83	0x3eefbdfe	0.4682464
84	0xbeee5a27	-0.46553156
85	0xc0041af8	-2.064146
86	0xbea14b7c	-0.31502903
87	0xbf38e29e	-0.7222079
88	0xc03eb07e	-2.9795222
89	0xbf2ffe35	-0.68747264
90	0xbd330308	-0.043704063
91	0xc0375066	-2.8642821
92	0xbf15bbab	-0.58489484
93	0x3bd73fa4	0.006568866
94	0xc0120eba	-2.2821488
95	0xbee0885f	-0.43854043
96	0xbf936036	-1.1513736
97	0xbf815519	-1.0104095
98	0x3f2de558	0.67928076
99	0x3da6d8c3	0.08146813
100	0x3ff27d8e	1.8944566
101	0x3e9d0e48	0.30674958
102	0xbfdf5c63	-1.7450069
103	0x3f283379	0.6570354
104	0xbee88989	-0.4541743
105	0x3f1293ce	0.5725678
106	0xc03086d8	-2.7582302
107	0xbed62bd5	-0.41830316
108	0xbecd40d9	-0.40088537
109	0xbdc50587	-0.09620195
110	0x3e2fa310	0.17152047
111	0xbfa8bd0e	-1.3182695
112	0xbfadf53a	-1.3590462
113	0xbee1153e	-0.4396152
114	0x3ff38f36	1.902808
115	0xbe962b27	-0.29329798
116	0xbd5ddaea	-0.05416385
117	0xbfc59492	-1.5435965
118	0x4013a764	2.3070917
119	0x3f1582a8	0.5840249
120	0x3f8ea62d	1.1144463
121	0x3fa4d804	1.2878423
122	0xbf13fe10	-0.57809544
123	0xbf6943da	-0.9111916
124	0xbe6eb52a	-0.23311296
125	0xbe8d620f	-0.27613875
126	0xbfb25a32	-1.3933775
127	0xbf2767e5	-0.65392905
128	0xbebfaa52	-0.37434632
129	0xbfc5073c	-1.5392833
130	0x3f93b99d	1.154102
131	0x3ee2899c	0.44245613
132	0xbfb79cde	-1.4344747
133	0x3fc4149f	1.5318793
134	0x3ef94ecd	0.48692933
135	0xbf9d3faa	-1.2285054
136	0x3f0f5e22	0.5600301
137	0x3ea2cb0a	0.31795532
138	0xbfeaf9ca	-1.835748
139	0xbfeb5bb9	-1.8387367
140	0xbf38ca45	-0.7218364
141	0x3fdd20ce	1.7275636
142	0xbf846783	-1.0344089
143	0xbe77f078	-0.24212825
144	0xc006c21f	-2.1055982
145	0xbf5ad679	-0.8548351
146	0xbe8c1428	-0.27359128
147	0xbfef4311	-1.8692342
148	0xbf8ed84b	-1.1159757
149	0xbe38218a	-0.17981544
150	0xbc390ad1	-0.011294083
151	0x4017e5bb	2.3733966
152	0x3f002a6c	0.5006473
153	0xbf8b41ae	-1.0879419
154	0x3eef9803	0.46795663
155	0x3e918d2a	0.28428012
156	0xbea0aae8	-0.3138039
157	0xc057fe9b	-3.374915
158	0xbf3665b8	-0.7124896
159	0x3fb2daac	1.3972983
160	0xbff893d7	-1.9420117
161	0xbeab5d77	-0.33469746
162	0xbe4e3e9e	-0.20141074
163	0xbfde3bf7	-1.736205
164	0xbed317e0	-0.41229153
165	0xbfa79580	-1.3092499
166	0xbfa11ec3	-1.2587513
167	0xbec32801	-0.38116458
168	0xbfcc0cfc	-1.5941463
169	0xbff56768	-1.9172182
170	0xbf118c92	-0.5685512
171	0xbfa1bbf7	-1.2635487
172	0xc00f8d67	-2.2430055
173	0xbf203adb	-0.62589806
174	0x3f2c9ca3	0.6742651
175	0x3faded58	1.3588057
176	0x3eb2c64a	0.34916908
177	0xbf9a80c5	-1.2070547
178	0xc0126cb0	-2.2878838
179	0xbf0c9056	-0.5490774
180	0xbeb6a085	-0.35669342
181	0x3f8c535e	1.0962942
182	0xbe26123f	-0.16217898
183	0xbf98fcee	-1.1952188
184	0xbfebff73	-1.8437332
185	0x3e386b1a	0.18009606
186	0xbd457977	-0.04821154
187	0x4005efad	2.0927536
188	0x3ef50b47	0.47860166
189	0xbfac1d0c	-1.3446364
190	0xbf6f7481	-0.93537146
191	0xbec5fb24	-0.38668168

network.0.bias f4 [64]
0	0x3e9fc8a3	0.3120776
1	0x3fdaf602	1.7106326
2	0x3f8c6a8e	1.0970018
3	0x3f26bcce	0.65131843
4	0x3fc950c5	1.5727774
5	0x3f8cfae3	1.1014065
6	0xbf88a9e9	-1.0676852
7	0x3f0fbb8b	0.5614554
8	0x3f8d593c	1.1042857
9	0x3f676ffb	0.90405244
10	0x3de2fb80	0.11083126
11	0x3f58b4fe	0.8465117
12	0xbf578672	-0.8418952
13	0x3f991d1f	1.1962012
14	0x3f55465b	0.8331048
15	0x3ee436c9	0.44573048
16	0x3f094845	0.536259
17	0xbf5273a6	-0.82207716
18	0xbdfb76ec	-0.12278542
19	0x3eb51f48	0.35375428
20	0x3f701444	0.9378092
21	0x3f6bec35	0.921573
22	0xbf2c74b8	-0.673656
23	0xbebb0012	-0.3652349
24	0x3f68a0b2	0.908702
25	0x3cce6682	0.025195364
26	0x3f8d1014	1.1020532
27	0x3e9ffaab	0.31245932
28	0x3fa9860f	1.3244036
29	0xbec69c7e	-0.3879127
30	0xbf5e8810	-0.86926365
31	0x3f7ceb0a	0.9879614
32	0xbf0b5c55	-0.5443776
33	0x3fc61ccc	1.5477538
34	0xbf94f02c	-1.1635795
35	0xbd2a6d91	-0.041608397
36	0x3fb7de46	1.4364707
37	0x3f47a04d	0.77978975
38	0x3f8839fe	1.0642698
39	0x3d8caedb	0.068692885
40	0x3fbd951c	1.481113
41	0x3f76533f	0.96220773
42	0x3f8cfebb	1.1015238
43	0x3f809508	1.0045481
44	0x3f456bb6	0.7711748
45	0x3f6d655d	0.92732793
46	0x3f313037	0.69214195
47	0x3e967422	0.29385477
48	0xbf5f1329	-0.8713861
49	0xbf5aaf0b	-0.85423344
50	0xbef579f2	-0.479446
51	0x3f6118d2	0.879285
52	0xbe8000bc	-0.2500056
53	0xbd69c635	-0.05707379
54	0xbe3491a6	-0.17633685
55	0x3f4bf4df	0.7967052
56	0x3f5c6601	0.86093146
57	0x3d499be2	0.049220927
58	0xbe18296d	-0.14859553
59	0x3eff1794	0.49822676
60	0x3f7f6fc5	0.9977992
61	0x3f825344	1.0181661
62	0x3f288002	0.65820324
63	0x3f7930a8	0.9733987

network.2.weight f4 [32, 64]
0	0x3f814544	1.0099263
1	0xbf0c89e5	-0.5489791
2	0x3f09863e	0.5372046
3	0x3ea3c7b4	0.319883
4	0xbf0c7064	-0.54858994
5	0x3f0a9814	0.541383
6	0xbeef8757	-0.46782944
7	0xbe1e3865	-0.154512
8	0x3e9bb405	0.30410782
9	0x3f37906d	0.7170475
10	0x3f31c27d	0.6943739
11	0x3f2dc084	0.6787188
12	0xbe5cb86b	-0.21554725
13	0x3ede4608	0.43412805
14	0x3f5e3e0e	0.8681344
15	0x3ecaf597	0.39640495
16	0x3f444c19	0.76678616
17	0x3eff0f2e	0.4981627
18	0x3f2248e2	0.6339246
19	0x3f676ee8	0.90403605
20	0xbea00a48	-0.31257844
21	0xbf467051	-0.7751513
22	0xbfb023bb	-1.3760904
23	0xbf803dd2	-1.0018866
24	0xbf405122	-0.751238
25	0x3f15c7d0	0.58508015
26	0x3f567c5c	0.8378351
27	0x3f3b83ac	0.7324779
28	0xbfa695ac	-1.3014426
29	0xbf3605aa	-0.7110239
30	0xbf40aa7d	-0.75260144
31	0xbf9f5011	-1.2446309
32	0xbf54291e	-0.8287524
33	0xbee69f60	-0.45043468
34	0xbfa019cc	-1.2507873
35	0x3f7463ab	0.9546458
36	0xbf00a9f3	-0.5025932
37	0x3f095ba6	0.5365547
38	0x3f58e3cf	0.8472261
39	0xbfbe35b4	-1.4860139
40	0xbf8e054d	-1.1095368
41	0x3f0773ce	0.5291108
42	0x3ef70af7	0.48250553
43	0x3f3e5ad7	0.7435736
44	0x3f1e468c	0.61826396
45	0x3f465742	0.77476895
46	0xbf3974f8	-0.72444105
47	0x3f2c9ef0	0.6743002
48	0xbf87d0d3	-1.0610603
49	0x3ff684ae	1.9259241
50	0x3f199144	0.5998728
51	0x3f06150f	0.5237588
52	0x3f5c3ab6	0.86027086
53	0x3f0875bc	0.5330465
54	0x3e83a535	0.2571198
55	0x3f3030b8	0.6882434
56	0x3f260921	0.6485768
57	0xbf1f3709	-0.6219335
58	0x3c5e6694	0.013574261
59	0x3f649296	0.8928617
60	0x3eb9d586	0.36295718
61	0x3f6de9a0	0.9293461
62	0x3e81ed58	0.2537639
63	0x3f4475d5	0.767423
64	0xbe062630	-0.13100505
65	0x3b94e2b6	0.0045436276
66	0xbc03fadf	-0.008055418
67	0xbdd504fd	-0.10401342
68	0x3c4d6617	0.012536547
69	0x3d3e68e8	0.046486765
70	0xbdf4197b	-0.119189225
71	0x3c384a15	0.011248131
72	0xbe152771	-0.14565827
73	0xbd32dba5	-0.0436665
74	0x3d4965c1	0.049169306
75	0x3d3fcc64	0.04682578
76	0x3cb81907	0.022472871
77	0x3da95d97	0.08269804
78	0xbc5ed963	-0.013601634
79	0x3da86c7b	0.08223816
80	0xbc53acff	-0.012919663
81	0xbde1bbc8	-0.110221446
82	0x3da45628	0.080242455
83	0xbdd2a9b9	-0.10286278
84	0xbdaec377	-0.08533376
85	0xbd91d63a	-0.071209386
86	0xbe029e78	-0.12755764
87	0xbe04fd46	-0.12987241
88	0xbcb4cb89	-0.02206971
89	0x3d8ad864	0.067795545
90	0xbdd43780	-0.10362148
91	0xbde758d1	-0.11296237
92	0x3d78f0aa	0.06077639
93	0xbdbf7910	-0.09349263
94	0x3dd73b3d	0.10509346
95	0xbc9318d4	-0.017956175
96	0x3c7c96c0	0.015416801
97	0x3d84d36d	0.06485639
98	0xbe0168cb	-0.12637632
99	0xbe1ced7f	-0.15324973
100	0x3da9ae2a	0.08285172
101	0xbb5bdbea	-0.0033547827
102	0xbdac9333	-0.084265135
103	0xbdf9b9f0	-0.12193668
104	0x3d82e684	0.063916236
105	0xbe0bac41	-0.13639928
106	0xbd8a8267	-0.067631535
107	0xbdc7e797	-0.09760969
108	0xbdf74d63	-0.12075307
109	0xbd8c7a03	-0.068592094
110	0x3ce67738	0.02813302
111	0xbd913d48	-0.070917666
112	0x3ca82445	0.020525107
113	0xbdec4ee3	-0.11538484
114	0xbda13453	-0.07871308
115	0xbe0e7722	-0.13912633
116	0xbdd01382	-0.10159971
117	0xbd90f880	-0.070786476
118	0x3ce21e70	0.027602404
119	0x3ca14655	0.019686857
120	0xbdf3c244	-0.119022876
121	0x3b75fb64	0.0037533874
122	0x3d45f315	0.048327524
123	0x3cce72ee	0.025201287
124	0x3da12187	0.07867723
125	0x3c9231b1	0.01784596
126	0xbcb624a2	-0.022234265
127	0xbca475bd	-0.020075673
128	0x3f5e7a63	0.869055
129	0xbf1e5bf9	-0.6185909
130	0x3ef5f53d	0.48038664
131	0x3ea2dae3	0.31807622
132	0xbeffe4f0	-0.49979353
133	0x3ef46efd	0.47740927
134	0xbed858b6	-0.4225518
135	0xbe08e360	-0.13367987
136	0x3ecf844c	0.40530622
137	0x3f0fe8d4	0.5621464
138	0x3f519c78	0.8187938
139	0x3f24b8b8	0.6434436
140	0xbcb813a5	-0.022470305
141	0x3ecb710e	0.3973469
142	0x3f1df66d	0.6170414
143	0x3f085e68	0.5326905
144	0x3f494cc4	0.7863276
145	0x3f2ec9c7	0.6827664
146	0x3f113de4	0.5673506
147	0x3f2bb80f	0.67077726
148	0xbe84e9f1	-0.25959733
149	0xbf025942	-0.50917447
150	0xbf8c5539	-1.0963508
151	0xbf49e80d	-0.78869706
152	0xbf085304	-0.5325167
153	0x3f18b869	0.5965639
154	0x3f3e8fd9	0.74438244
155	0x3f2e3f6a	0.6806551
156	0xbf9ac7a4	-1.2092175
157	0xbf4bffdb	-0.7968728
158	0xbf2c0d3d	-0.672077
159	0xbf916c7b	-1.1361231
160	0xbf4cdba0	-0.8002262
161	0xbeba36db	-0.36369976
162	0xbf461ef2	-0.7739097
163	0x3eaabfb3	0.3334938
164	0xbf0c2a36	-0.5475191
165	0x3f0c5840	0.5482216
166	0x3f27a495	0.6548551
167	0xbf9ea1c2	-1.2393115
168	0xbf065fd9	-0.5249
169	0x3ef8d2c3	0.48598298
170	0x3f3100c9	0.69141823
171	0x3f34cfb1	0.7062941
172	0x3ef44c91	0.47714666
173	0x3efe7912	0.49701744
174	0xbf44bd7a	-0.7685162
175	0x3ee2fa4c	0.44331586
176	0xbf80b086	-1.0053871
177	0x3fdcfc40	1.726448
178	0x3f304989	0.68862206
179	0x3f0cdd6e	0.55025375
180	0x3f389a1a	0.7211014
181	0x3f0c0d0b	0.547074
182	0x3e938d97	0.28818962
183	0x3f26a7ac	0.65099597
184	0x3f2c0d30	0.6720762
185	0xbf33ab0f	-0.7018289
186	0x3e99b9d3	0.30024585
187	0x3f542330	0.8286619
188	0x3ed7cb44	0.42147267
189	0x3f110a5b	0.56656426
190	0x3e985c7a	0.29758054
191	0x3f51865b	0.81845635
192	0x3f2ef875	0.68347865
193	0xbe25e55b	-0.16200773
194	0x3ec6e5bf	0.38847157
195	0x3f060222	0.52347004
196	0xbe7afac8	-0.24509728
197	0x3ec79e5c	0.38988006
198	0xbea6a10f	-0.32544753
199	0x3e3fa810	0.18716455
200	0x3e92f7e3	0.28704748
201	0x3f0ce27d	0.55033094
202	0x3f567017	0.83764786
203	0x3ecdd90b	0.40204653
204	0x3e2c6ddf	0.16838787
205	0x3ee11f09	0.4396899
206	0x3edd655d	0.43241397
207	0x3efac60a	0.48979217
208	0x3f1638db	0.58680505
209	0x3f4439a3	0.76650447
210	0x3f3150af	0.6926374
211	0x3ef8aa2f	0.4856734
212	0xbcd0faa0	-0.025510132
213	0xbf099e03	-0.5375673
214	0xbf8446ae	-1.033407
215	0xbf68470b	-0.907334
216	0xbf1930b8	-0.59839964
217	0x3f20512d	0.62623864
218	0x3fae186e	1.3601205
219	0x3f06dbd9	0.5267921
220	0xbfa33a09	-1.2752086
221	0xbf343a41	-0.7040139
222	0xbf330d01	-0.6994172
223	0xbf82add2	-1.0209296
224	0xbf2cc8e9	-0.67494065
225	0xbe8f0065	-0.27929989
226	0xbf4bb9a6	-0.7958015
227	0x3ea04bdd	0.3130788
228	0xbe84fba2	-0.2597323
229	0x3f09ecd3	0.5387699
230	0x3f529a13	0.8226635
231	0xbf90f94b	-1.1326078
232	0xbeff1193	-0.49818096
233	0x3f2dcaf4	0.67887807
234	0x3f201a76	0.62540376
235	0x3ed89dc7	0.42307875
236	0x3ec53b91	0.38522008
237	0x3f1ea4a0	0.6196995
238	0xbf656f89	-0.89623314
239	0x3f4d3a67	0.8016724
240	0xbf228766	-0.6348785
241	0x3fe93a0d	1.8220841
242	0x3f2a1ba9	0.66448456
243	0x3ea8e8b7	0.32990047
244	0x3f553e92	0.832986
245	0x3f2c1065	0.67212516
246	0x3ea1c258	0.31593585
247	0x3f21fb98	0.63274527
248	0x3f3a5540	0.7278633
249	0xbf46fad4	-0.77726483
250	0x3f16f4cf	0.589673
251	0x3f6b06ab	0.9180705
252	0x3f103d81	0.5634385
253	0x3f310d66	0.6916107
254	0x3ee181b2	0.44044262
255	0x3f4560f1	0.77101046

network.2.bias f4 [32]
0	0xbf067deb	-0.52535886
1	0xbe157ffa	-0.145996
2	0xbe7fcdd9	-0.24980868
3	0xbe81512b	-0.2525724
4	0xbcb541cf	-0.022126107
5	0xbe4254e5	-0.18977697
6	0x3e8f3979	0.27973536
7	0xbe0a966f	-0.13533948
8	0xbe30cc98	-0.17265546
9	0xbe482bea	-0.19548002
10	0xbe946328	-0.289819
11	0xbe452764	-0.19253308
12	0xbeeede3d	-0.4665393
13	0xbe8d3110	-0.27576494
14	0xbe93a5cc	-0.2883743
15	0x3fc8c348	1.5684595
16	0x3ef62ba2	0.48080164
17	0xbe491024	-0.19635063
18	0x3d707eaf	0.058714565
19	0xbe87b93f	-0.2650852
20	0xbe9844a4	-0.2973987
21	0xbe1ff818	-0.15621984
22	0x3ec1821a	0.37794572
23	0xbd846c3f	-0.06465959
24	0x3ecbf3e1	0.39834502
25	0xbea5607d	-0.32300177
26	0xbe50fad9	-0.20408191
27	0xbcc481be	-0.023987647
28	0xbebb10e6	-0.3653633
29	0x3d81b5c4	0.06333497
30	0x3f2bef7b	0.67162293
31	0xbea38dfa	-0.31944257

network.4.weight f4 [17, 32]
0	0xbf819718	-1.0124235
1	0x3d3726d0	0.04471475
2	0xbf2d0eb5	-0.67600566
3	0xbef16b59	-0.47152212
4	0x3dc047ac	0.0938867
5	0xbf16d95f	-0.5892543
6	0x3f4e083e	0.80481327
7	0xbf2dd1d2	-0.67898285
8	0xbf579c38	-0.84222746
9	0xbf29ed83	-0.6637804
10	0xbf0b304d	-0.54370576
11	0xbe030142	-0.12793449
12	0xbf1b0af8	-0.6056361
13	0xbef2a023	-0.473878
14	0xbe6a6cad	-0.22893019
15	0x4064a35f	3.5724714
16	0x3f388282	0.7207414
17	0xbf39db0e	-0.72599876
18	0xbe3956dc	-0.1809954
19	0xbf31409c	-0.6923921
20	0xbf879333	-1.0591797
21	0xbf1940a0	-0.59864235
22	0xc05db750	-3.4643135
23	0xbf5bfb0e	-0.85929954
24	0xbfbe2bdc	-1.4857135
25	0xbf1dfcb1	-0.617137
26	0xbf126d20	-0.5719776
27	0x3d244ec7	0.04011419
28	0xbf1d2c9e	-0.61396205
29	0x3e0fd922	0.14047673
30	0xbfeaaf8f	-1.8334826
31	0xbe72ea3e	-0.23722169
32	0xbf8ce905	-1.1008612
33	0xbd45c807	-0.048286464
34	0xbf13c8ff	-0.5772857
35	0xbf1229f2	-0.57095253
36	0xbd38adac	-0.0450875
37	0xbf12f54e	-0.57405555
38	0x3f3ebea8	0.7450967
39	0xbf31331b	-0.69218606
40	0xbf3a9a89	-0.7289205
41	0xbf43665b	-0.7632806
42	0xbef57e50	-0.4794793
43	0xbe4345f4	-0.19069654
44	0xbf0775ea	-0.529143
45	0xbeacf82f	-0.337831
46	0xbea835b2	-0.32853466
47	0x40538ba0	3.305397
48	0x3f349fde	0.7055644
49	0xbf0361bf	-0.51321024
50	0xbdc1a0ce	-0.09454499
51	0xbf5d69aa	-0.86489356
52	0xbf6f39fa	-0.9344784
53	0xbf1b2a8d	-0.606118
54	0xc0307cf1	-2.7576258
55	0xbf56d653	-0.8392078
56	0xbfaaf6b6	-1.335654
57	0xbf093a62	-0.5360471
58	0xbf0f8a8a	-0.5607077
59	0xbdf0a556	-0.11750285
60	0xbf1bf282	-0.6091691
61	0xbe2fde2e	-0.17174599
62	0xbfbf4a2b	-1.4944509
63	0xbefe615a	-0.49683648
64	0xbf7d76c8	-0.9900937
65	0xbde6df9e	-0.1127312
66	0xbf1fdbe8	-0.62444925
67	0xbed2e64d	-0.4119133
68	0xbdae88e8	-0.085222065
69	0xbef640db	-0.48096356
70	0x3f2e5b86	0.68108404
71	0xbf46f5d6	-0.77718866
72	0xbf39ffd8	-0.7265601
73	0xbf4395b8	-0.7640033
74	0xbf0268fc	-0.50941443
75	0xbee690f4	-0.45032465
76	0xbf110f7d	-0.5666426
77	0xbea3d65e	-0.31999487
78	0xbf0f0a2d	-0.558749
79	0x40424a74	3.0357943
80	0x3f3374bb	0.7009999
81	0xbf37549f	-0.71613497
82	0x3b2658eb	0.002538259
83	0xbf33e177	-0.7026591
84	0xbf578642	-0.84189236
85	0xbf09b0fa	-0.5378567
86	0xc0041da5	-2.0643094
87	0xbf650174	-0.8945534
88	0xbf970ca7	-1.1800736
89	0xbedb2e0e	-0.42808574
90	0xbf0cf355	-0.55058795
91	0x3e2a0455	0.16603215
92	0xbf10db97	-0.5658507
93	0xbdcca278	-0.09991926
94	0xbf998ed3	-1.1996711
95	0xbf0498dd	-0.5179575
96	0xbf60a317	-0.87748855
97	0xbe0ccf83	-0.13751034
98	0xbf2a72c6	-0.6658138
99	0xbee03b50	-0.43795252
100	0x3b6fd2ed	0.0036594227
101	0xbee70b12	-0.45125633
102	0x3f262688	0.64902544
103	0xbf445c60	-0.76703453
104	0xbf0f0568	-0.55867624
105	0xbf4662aa	-0.774943
106	0xbf358d41	-0.7091866
107	0xbecbcbf9	-0.39804056
108	0xbefe52d3	-0.49672565
109	0xbedc1647	-0.42985746
110	0xbf1f08ba	-0.6212269
111	0x403a0564	2.906579
112	0x3f34b0fb	0.7058255
113	0xbf1e2c10	-0.61785984
114	0x3e04dba0	0.12974405
115	0xbf4f9997	-0.81093735
116	0xbf72077e	-0.9454268
117	0xbedd8576	-0.43265885
118	0xbfe6b3b7	-1.8023595
119	0xbf66ac0d	-0.9010628
120	0xbf818512	-1.0118735
121	0xbf1ec9c8	-0.62026644
122	0xbf1944cd	-0.59870607
123	0x3d03356a	0.03203336
124	0xbf10fcfb	-0.5663602
125	0x3d4d8b38	0.050181597
126	0xbf87663f	-1.0578078
127	0xbecfd666	-0.4059326
128	0xbf708e94	-0.93967557
129	0x3dd2b019	0.10287494
130	0xbefa3b29	-0.4887326
131	0xbedddd57	-0.4333293
132	0x3db82130	0.08990705
133	0xbf199ca0	-0.60004616
134	0x3f2015b1	0.625331
135	0xbf512f3d	-0.81712705
136	0xbf0085b0	-0.5020399
137	0xbf5b9b5d	-0.8578394
138	0xbf377d34	-0.7167542
139	0xbee859a3	-0.45380887
140	0xbf10eb76	-0.56609285
141	0xbeb60edd	-0.35558215
142	0xbef82b06	-0.48470324
143	0x4038143e	2.8762355
144	0x3f35084a	0.70715773
145	0xbf26c849	-0.6514936
146	0xbe10189e	-0.1407189
147	0xbf4b6536	-0.7945131
148	0xbf6220ef	-0.883315
149	0xbf0efd41	-0.55855185
150	0xbfce37d3	-1.6110786
151	0xbf57b77e	-0.8426436
152	0xbf7ff62f	-0.9998502
153	0xbee071d7	-0.43836853
154	0xbf107d33	-0.5644104
155	0x3b9ef045	0.0048504197
156	0xbf22f72e	-0.63658416
157	0xbdd7962b	-0.10526689
158	0xbf5e1ace	-0.8675965
159	0xbf1efdde	-0.6210612
160	0xbf872267	-1.0557374
161	0x3dc44f3f	0.095854275
162	0xbf07b5f6	-0.53012025
163	0xbf0d40f7	-0.55177253
164	0x3db7e1ae	0.08978592
165	0xbf27cb3a	-0.65544474
166	0x3f1f19d2	0.62148774
167	0xbf7582e0	-0.95902824
168	0xbf0c7ecd	-0.5488098
169	0xbf53957c	-0.8264997
170	0xbf141e83	-0.5785906
171	0xbf0e6df9	-0.55636555
172	0xbf0a0f27	-0.5392937
173	0xbed21dca	-0.41038352
174	0xbf10f6af	-0.5662641
175	0x402eb5ec	2.7298536
176	0x3f38633c	0.7202642
177	0xbf128167	-0.572287
178	0x3d52de27	0.051481392
179	0xbf5fe22d	-0.8745449
180	0xbf380bd5	-0.71893054
181	0xbf04f23f	-0.5193214
182	0xbfad77ce	-1.3552186
183	0xbf3d9af7	-0.7406458
184	0xbf40e2a1	-0.7534581
185	0xbf1c17d1	-0.6097384
186	0xbf28df3d	-0.65965635
187	0xbdfe63d2	-0.12421383
188	0xbea9c8d6	-0.33161038
189	0xbd986a21	-0.074421175
190	0xbf36dcbf	-0.7143058
191	0xbeea29d8	-0.4573505
192	0xbf816077	-1.0107564
193	0x3dcbacb1	0.09945048
194	0xbee41657	-0.44548294
195	0xbf2470e6	-0.6423477
196	0x3b86b1fd	0.0041105733
197	0xbf20b50e	-0.6277627
198	0x3f19225b	0.5981805
199	0xbf5d8e22	-0.86545
200	0xbf01bc4c	-0.50677943
201	0xbf643ed3	-0.8915836
202	0xbf34484b	-0.7042281
203	0xbedfb7f2	-0.43695027
204	0xbf184943	-0.5948679
205	0xbee43484	-0.44571316
206	0xbf05dd0c	-0.52290416
207	0x4028b981	2.6363223
208	0x3f352da0	0.70772743
209	0xbf05fa47	-0.5233502
210	0x3d0efabf	0.0349071
211	0xbf40f45c	-0.7537286
212	0xbf46654e	-0.7749833
213	0xbec18076	-0.3779332
214	0xbf88476c	-1.0646796
215	0xbf5ef709	-0.87095696
216	0xbf2c0d7f	-0.67208093
217	0xbf28e069	-0.6596742
218	0xbed439f0	-0.41450453
219	0xbd9891cc	-0.074496835
220	0xbf11968a	-0.5687033
221	0xbcbbaa78	-0.022908434
222	0xbeffb940	-0.49946022
223	0xbf332e03	-0.69992083
224	0xbf5cf109	-0.8630529
225	0xbd8e3107	-0.06942945
226	0xbf006a64	-0.5016234
227	0xbef30adf	-0.4746923
228	0xbd6acb9d	-0.057323087
229	0xbf2457c3	-0.64196414
230	0x3f0860b3	0.5327255
231	0xbf5f3ce8	-0.8720231
232	0xbf0fb38a	-0.5613333
233	0xbf687c88	-0.9081502
234	0xbf385a88	-0.7201314
235	0xbf317001	-0.6931153
236	0xbf2c33bc	-0.6726644
237	0xbee29112	-0.44251305
238	0xbf136ec8	-0.57590914
239	0x4023fa26	2.5621428
240	0x3f3b64d9	0.73200756
241	0xbf211316	-0.6291975
242	0x3c4f7d20	0.0126641095
243	0xbf3b95df	-0.7327556
244	0xbf31c467	-0.6944031
245	0xbf041132	-0.5158874
246	0xbf585a35	-0.84512645
247	0xbf5f6d7a	-0.8727642
248	0xbf18f329	-0.5974603
249	0xbef5947e	-0.47964853
250	0xbee7f101	-0.4530106
251	0x3c9a46cb	0.018832585
252	0xbeefdcfa	-0.4684828
253	0xbd698e85	-0.057020683
254	0xbec0fc8c	-0.37692678
255	0xbf20f893	-0.62879294

network.4.bias f4 [17]
0	0x3e97a05f	0.2961454
1	0x3e875086	0.26428622
2	0x3e236597	0.15956722
3	0x3ea5af14	0.32360137
4	0x3d9822d0	0.07428515
5	0xbd521434	-0.0512888
6	0x3e129f8c	0.14318675
7	0xbe6232ba	-0.22089663
8	0xbe07778a	-0.13229194
9	0xbd20ab04	-0.039225593
10	0xbd72b760	-0.05925691
11	0xbd779299	-0.06044254
12	0xbd8cd1f3	-0.06875982
13	0xbe1585e7	-0.14601861
14	0xbead0b94	-0.33797896
15	0xbede0eb5	-0.43370596
16	0xbe064b6b	-0.13114707
