src/Model_free/output/SAC_NN.pth (torch, 21044 bytes, 6 tensors)

layer.0.weight f4 [64, 3]
00000000: 5a9e 3ebd 3ff5 bfbe 0aa0 b93e 73e3 99bf
00000010: e5ec 0abe e7a5 ab3d c9dc c3be cf88 5cbf
00000020: 410d 9ebe bc21 dabe 9119 b2bf 33a0 60be
00000030: 67d1 cebd 5270 d1bf 7dc3 8ebe 43b4 7a3e
00000040: 83e7 86bf 13d1 753d 9e11 3cbf 0cd4 abbe
00000050: 200d 853d f634 81be 2e68 35bf 6fa9 833b
00000060: 07d7 3dbd 4d98 88bf 6142 fdbd e83c efbc
00000070: 0dbc 783f be4f b23e bf2f fb3e a9a3 403f
00000080: ca54 783e 9459 86be 6d5a 9b3f f1f9 ee3e
00000090: 06f8 463f 0d83 b93e 63c8 3e3e e83f 833f
000000a0: 3273 8f3f b1aa 993e 6d4b 5c3f 28b8 a7bf
000000b0: 2c02 85be 74e4 acbf 0827 b3be 5ce9 f93c
000000c0: 6b2c 46bf 78a2 a6be ee0e b53e d503 e83e
000000d0: 2ec2 73bf fb3e 57be 2b2e b73d 4893 353e
000000e0: 18e4 07be 687e 4dbf 0c4e af3f 3ded 8a3d
000000f0: 1e37 103f 1dcd 02be be1f 26bc 80e5 68bc
00000100: 90fd 84bf 5f70 d7bd be35 1d3f f914 b9be
00000110: c858 b03e 07cd b83e d916 123f f270 80be
00000120: 5869 443e 3976 93bf 4092 cebe ee9c fbbe
00000130: 7e47 d0be ef7a 00bf ccdd 41bf 29f3 85be
00000140: 5938 0f3e 460a 7bbe 85c9 3bbe 46fa 93be
00000150: 8343 8d3f 1b7e 3cbe ba52 a6be 85e4 213f
00000160: 073f acbf 47ac a5be 4f88 203d d8d7 ad3f
00000170: cd41 c63d 2a2a 36bf 0092 0bbf 4689 6e3e
00000180: 13ea 76bd 3e56 e9be ec5a 563e f4c1 81be
00000190: 0553 94be 62cc 06bf 13d8 43bf 3d1f 673f
000001a0: 29a9 e13e a68d 20bf e472 9c3f e732 cf3e
000001b0: be76 d4bd 32cf d03f 502c 743e e963 2bbf
000001c0: 8b63 89bf b5fd 263e 10b7 84bf c92c 1f3f
000001d0: 8f9b 5cbe c086 a73d ba4f 413f 989f 09bf
000001e0: 0d0d 2ebf a2ce 8a3f ba1c e1bd 0e67 43bf
000001f0: eb85 a4be 395d ccbe 4c12 0c3e 5573 50be
00000200: aa2f d6be f870 50bf b903 953f 34d6 a0bd
00000210: 5a86 d83e 3365 eabe dd82 603e be3a d23e
00000220: 94ff 413f d9b1 813e 9941 bd3e 3f53 833e
00000230: 87ff 74bd 8379 9d3f 55ef 613e 5038 aabe
00000240: b1bd 613f d07d 903f 928a 803e 0ad2 82bf
00000250: e364 36be 42c2 bbbd 4925 02bf 6b78 efbe
00000260: 5faf 33be 81eb 68bf 428d 823f 74a9 da3e
00000270: 0c65 2e3f 28e7 51bf cae4 a43d d589 0e3f
00000280: 823e 1d3f 9ad8 ab3e f3bc c03e ddc4 a0bf
00000290: 8df2 1cbe 28a6 643f 43d6 9bbf 277f ccbe
000002a0: b445 353e 3904 813e 4e7a 43bc bb3d 2f3e
000002b0: 929c 993e bc97 88be f535 5cbf f65a 5fbf
000002c0: ef99 0cbf 7920 eebe b061 d5be 7ccb 733e
000002d0: 9c3e 953e 24d5 34be 40f2 67be b0b5 fa3e
000002e0: 9f2d 42bf 9b53 bc3e ea2d 4abe 791d b3be
000002f0: 2de9 34bf 21e2 a2be 72e3 2a3d 3bca b13c
-0.046537735 -0.37491795 0.36254913 -1.2022537 -0.1356693 0.08381253 -0.38254383 -0.86146253
-0.30869487 -0.42603862 -1.3914052 -0.21936111 -0.10098534 -1.6362402 -0.2788352 0.24482827
-1.0539402 0.06001384 -0.7346438 -0.33560216 0.06496644 -0.25235718 -0.7086209 0.004018001
-0.046347644 -1.0671479 -0.123661764 -0.029203847 0.9716194 0.34826463 0.49059865 0.75249726
0.24251094 -0.26240218 1.2136971 0.46675065 0.77722204 0.36232796 0.18631129 1.0253878
1.120703 0.3001304 0.8605259 -1.3103075 -0.2597822 -1.3507218 -0.34990716 0.030506782
-0.77411526 -0.3254583 0.35362953 0.45315424 -0.9521817 -0.21020119 0.08944353 0.17731965
-0.13270605 -0.80271006 1.3695693 0.06783531 0.563341 -0.12773557 -0.010139404 -0.014214873
-1.0389881 -0.1051948 0.6141013 -0.36148813 0.34442735 0.36093923 0.5706611 -0.2508617
0.1918081 -1.1520454 -0.40345955 -0.49143165 -0.40679544 -0.5018758 -0.7572906 -0.2616208
0.13986339 -0.24515638 -0.18338592 -0.2890188 1.1036228 -0.1840748 -0.3248499 0.6323932
-1.3456734 -0.32358 0.039192494 1.3581495 0.09680519 -0.7115809 -0.54519653 0.23294553
-0.060281824 -0.4557361 0.20933121 -0.25343287 -0.2896959 -0.52655613 -0.7650158 0.9028204
0.4407437 -0.6271614 1.2222562 0.40468523 -0.10374211 1.6313231 0.23845029 -0.66949326
-1.0733503 0.16307719 -1.0368366 0.6217771 -0.21543716 0.081799984 0.7551228 -0.53759146
-0.67988664 1.0844309 -0.10991807 -0.76329124 -0.3213342 -0.39914873 0.13678855 -0.20356496
-0.4183324 -0.81422377 1.1641761 -0.07853356 0.42290002 -0.45780334 0.2192492 0.41060442
0.75780606 0.25331 0.3696411 0.2564945 -0.059814002 1.2302707 0.22063954 -0.33246088
0.8818007 1.1288395 0.2510572 -1.0220349 -0.17811923 -0.09167911 -0.5083814 -0.4677156
-0.17547368 -0.9098435 1.0199358 0.42707407 0.68122935 -0.8199334 0.080514506 0.55679065
0.61423504 0.3356369 0.37644157 -1.2560078 -0.15326901 0.89316034 -1.2174762 -0.3994076
0.17702371 0.25198534 -0.011931015 0.17113392 0.30002266 -0.26678264 -0.8601983 -0.8724817
-0.54922384 -0.4650915 -0.41676092 0.23808092 0.2914933 -0.17659432 -0.22651005 0.48966742
-0.7585086 0.36782536 -0.19744077 -0.34983423 -0.706683 -0.31813148 0.041720815 0.021702876

layer.0.bias f4 [64]
00000000: 37ee 353d d3f7 9fbc 4553 9abe 7ed8 79be
00000010: 7b87 26bf 607c d9be 7fea 643e 244e 3a3f
00000020: 8dda d13e 83ce de3d 5d38 073e c266 e53d
00000030: b623 5ebc 4a6e 46bc dbb1 14bd 899c bbbe
00000040: 4dfc 6d3e 4ee3 abbe c0a8 313e 370b 14bf
00000050: 9df0 24bf 4cff b83e 6126 2dbf e294 bcbb
00000060: c8a9 7dbf b3df 4bbf db20 a83d 59ab b03d
00000070: 7009 46bf 3dfa dcbe 99c9 99bd 43e6 a9be
00000080: efb9 c4bb 9213 fd3c d3a8 3ebf 150f 10bf
00000090: 1c86 80bf fc19 04bf 7d55 8c3e ae79 97be
000000a0: b2da 2a3f ae37 58bf 7244 e1bd 9b2d 023e
000000b0: b9c0 2d3e fae6 3e3e 3e8c 0c3e c523 49bf
000000c0: dc14 8fbe 3d30 073f 943d 903e a858 2fbf
000000d0: 5bcd 04bf 1ee1 10bf 4595 4a3e 2d72 563f
000000e0: 7ca5 dcbe 1bbd 4ebc ef15 ecbc a59e b33e
000000f0: a89b 963e 6bfb c0be a676 13be eb8b febe
0.044416633 -0.019527351 -0.30141655 -0.24398991 -0.65050477 -0.42477703 0.22355078 0.72775483
0.40987054 0.10879233 0.13205095 0.1120124 -0.013558319 -0.012111256 -0.03630243 -0.36642864
0.23240776 -0.33571857 0.1734953 -0.5782961 -0.64429647 0.36132276 -0.67636687 -0.005755053
-0.9908719 -0.7963821 0.08209392 0.08626432 -0.7735815 -0.43159667 -0.07509155 -0.33183488
-0.0060036103 0.03089312 -0.74476355 -0.56273013 -1.0040927 -0.5160215 0.27408972 -0.29585022
0.6673995 -0.8445996 -0.10999383 0.1271271 0.16968049 0.18642798 0.13725373 -0.78570205
-0.27945602 0.5280798 0.2817198 -0.68494654 -0.5187585 -0.565935 0.19783504 0.8376797
-0.43095005 -0.012618328 -0.028819053 0.35081974 0.2941563 -0.37691817 -0.1440073 -0.49716124

layer.2.weight f4 [64, 64]
00000000: ff3f 34bd 85b4 00bf 57d6 8bbd d712 fabe
00000010: 005b 60bc b9d9 06be 3a0a f53e 22a1 05c0
00000020: 2d98 e8bf 9e65 813d c1ef bd3d 69ce 1cbf
00000030: 7e72 1dbe 66d3 793e 9eed e1bf bca9 18bf
00000040: ab2c 97be 97f8 73be 8791 453e 0fd9 47be
00000050: 6cd2 9c3d 0d69 d5bf af65 863d 99af dd3e
00000060: 1393 dbbe 270a 0b3e 2cc3 d73d 8618 69bf
00000070: f77f 1bbf e75d 30be 066c 26bf 685e 1dbe
00000080: 53fe f1be 8e5a 40be cbfc 443e 0e6d 2bbf
00000090: 95d3 de3e 0075 9cbe 8bd1 66bf c869 08bf
000000a0: d1e2 4abe f9e9 313e 698f b1be 7580 15c0
000000b0: 2c0a 9c3e f10e 5e3e d4f2 b43d 3624 53be
000000c0: 285a 103e b929 46be 61ff 58bd 15c4 c7bd
000000d0: 33ea 38be d7c7 c33e 5bf0 debf f68d 38c0
000000e0: 1d02 edbd c305 c2bd c3dc 513e 0678 26bf
000000f0: 4381 7ebf 52b1 13bf 0f42 ce3e 70bf a43d
00000100: 1769 d7be de31 f83d bae9 a83d b0a2 6a3e
00000110: 1447 44bf 476c 4dbe aa65 ddbe 1098 05bf
00000120: 2bc6 163c 5235 c13e 75ff a33e 12fa fabe
00000130: 6ad4 033e ef54 b83e 17a5 d1be e97d 8ebe
00000140: 508f 61bf 652c 3ebf 812a 7d3e a9c3 7a3e
00000150: 0ca2 a2bb 6df5 133e 6ee3 c13d 30fd 90be
00000160: 489a 37bf 0c19 81be cfdc 5fbf b185 91be
00000170: 1aa9 51bf ef2c 1bbf 4c81 993c 696e b6be
00000180: cccc 41bf 0de0 213e 9613 a2bf 80fc 46be
00000190: 111d b53e 3dd4 a1be 7666 353d a756 75be
000001a0: 4177 2c3e af94 dc3e d7b8 2e3e e075 c63e
000001b0: f4ad 3bba 4b86 613e 9933 ab3e 0636 90be
000001c0: 5a0d bbbe ca31 80bc b51f 223e a271 6dbf
000001d0: 225e 8cbf c1f3 723d f644 67be f2b6 9d3e
000001e0: 6677 bbbd 1aa5 913d edfd ad3e 3e79 a8be
000001f0: 9beb 2f3d 1c07 90bd dd33 abbe c3d8 943d
00000200: 2276 5e3d afa2 323e f900 623e a85b 213e
00000210: 3fcd d83e 17da 8a3d ca12 073c c7dc 983e
00000220: f984 cbbe 8c27 a8bd 6107 d03d 5cf1 c0bd
00000230: 324a 4b3e 978e 08be deaf 94ba 5c52 1d3f
00000240: ec3c bf3c 036d 11bf 3606 2a3d 3b3e d5be
00000250: 5eaa 0ebe caed c5be e190 7ebd daf1 e53d
00000260: 7c24 89bf 4b56 99bd cb03 bc3a 08d4 8e3e
00000270: 4722 2abf 1b3d 1dbf 019d 5d3e 0d53 ccbd
00000280: a768 23bd a5bf 36bc 6d78 18be 88b9 16be
00000290: 1fa0 d9bf 8960 f43d 832e 983e 43e4 613d
000002a0: 3ecc ac3d 2ed2 33be ab63 3fbd 188a db3d
000002b0: 7479 843d bfef febc 2bd9 223d d502 cabe
000002c0: ae48 be3e 9fc2 243e 5106 803e 89d0 18be
000002d0: 659b 4e3e 8055 32bc a3bc 543e 0e65 043e
000002e0: 75e9 183e c2b2 dabd 004d b6bb 01ed 373e
000002f0: 3cab d83b 7daf 51be 3cfe 073d 5616 863d
00000300: 090e ccbd aeb9 45be 704b 513d afd6 7b3c
00000310: 45ab 0f3c 1f7a 503d 7b91 8e3d 8a00 3f3c
00000320: fe9b 653d e851 0cbe 9f4b a03d 047a 273d
00000330: 203d 05be 3cce 13bd 9800 1e3d f7fa 6cbd
00000340: de69 02be 2a11 003e 2f85 a4bd 6321 05be
00000350: b549 2ebd 28ea e33d d51d 2cbe 9848 14be
00000360: b70e a13c 28b1 d2bc 4ef0 01be fd60 76bd
00000370: e6ab 273c 49f5 02bd 96b1 15be 22cf 63bc
00000380: b41d 63bc 09a2 3e3d c8b0 61bd f1f7 273d
00000390: 5bfa a53d 4681 e93d 45d7 09be c151 e1bd
000003a0: cd80 143d 3654 e83c 246b 34bd c15c 1abe
000003b0: d6a8 9e3d ef87 0a3d 04a2 1ebd 0535 d43d
000003c0: 812f 473d 619c e2bc 7e05 7cbd 0fd3 d0bb
000003d0: 26cf c1bd 3afb 19bd 6347 0b3a 460f d5bd
000003e0: 7e2a da3d b303 bb3c ee0e f0bd d0b7 87bd
000003f0: 1fb0 4fbd 64fd 20be 7ed1 c1bc 38b5 b33d
-0.044006344 -0.5027545 -0.068279915 -0.488425 -0.013693571 -0.13168992 0.47859365 -2.0879598
-1.817144 0.0631821 0.09274245 -0.61252457 -0.15375707 0.24397048 -1.765064 -0.59633994
-0.29526266 -0.23825298 0.19293796 -0.19516395 0.07657322 -1.6672684 0.06562363 0.43298033
-0.42885646 0.13578092 0.10535273 -0.91053045 -0.60742134 -0.17223321 -0.6500858 -0.15368044
-0.47264346 -0.18784544 0.19237058 -0.6696328 0.435208 -0.30558014 -0.9016349 -0.5328641
-0.19813086 0.1737441 -0.34679726 -2.3359654 0.3047651 0.21685387 0.08835378 -0.20619282
0.14096892 -0.19351853 -0.052977923 -0.097541966 -0.1805809 0.38238403 -1.7417101 -2.8836646
-0.11572669 -0.09473755 0.2049437 -0.6502689 -0.9941599 -0.57692444 0.40284774 0.08044326
-0.42072365 0.121188864 0.08247705 0.22913623 -0.76670957 -0.20060836 -0.43241626 -0.52185154
0.00920252 0.37735993 0.32030836 -0.49018914 0.12873998 0.360023 -0.40946266 -0.27830437
-0.881093 -0.7428649 0.24723245 0.24488701 -0.004963165 0.14449091 0.09467207 -0.28318167
-0.7171979 -0.25214422 -0.874463 -0.2842231 -0.81898654 -0.6061544 0.018738411 -0.3563111
-0.7570312 0.15808125 -1.2662227 -0.19432259 0.35373738 -0.31607237 0.044287167 -0.23958836
0.16842367 0.43082187 0.17062698 0.38761806 -0.0007159405 0.22023885 0.33437803 -0.28166217
-0.36533624 -0.015648741 0.15832408 -0.92751515 -1.0966227 0.059314493 -0.225849 0.3080364
-0.09153633 0.07111569 0.33982792 -0.32905 0.0429493 -0.07032606 -0.33438006 0.072679065
0.05431188 0.17444871 0.22070684 0.1575762 0.4234409 0.067798786 0.008244226 0.2985594
-0.39749888 -0.08210668 0.101576574 -0.09421036 0.19852522 -0.13335644 -0.0011343916 0.61453795
0.02334448 -0.56806964 0.04150983 -0.4164904 -0.13932177 -0.3865798 -0.062149886 0.1122777
-1.0714259 -0.07487162 0.0014344392 0.27896142 -0.66458553 -0.61421365 0.21641923 -0.09976778
-0.039894726 -0.01115409 -0.14889689 -0.14719212 -1.700199 0.11932475 0.29722986 0.055149328
0.084373936 -0.17560646 -0.04672591 0.10719699 0.06468478 -0.03112018 0.03975789 -0.39455286
0.37164825 0.16089867 0.2500482 -0.149233 0.20176466 -0.010884643 0.20775084 0.12929174
0.14932807 -0.106786266 -0.0055633783 0.17961504 0.0066122096 -0.204771 0.03320144 0.06547229
-0.099636145 -0.19309112 0.051097333 0.015371009 0.008768861 0.050897714 0.06961342 0.011657843
0.05605697 -0.1370312 0.078269236 0.040887848 -0.13011599 -0.036085352 0.038574785 -0.057856526
-0.12735698 0.12506548 -0.08033215 -0.13001017 -0.04255076 0.11128646 -0.16808255 -0.14480817
0.019660337 -0.02571924 -0.12689325 -0.06015109 0.010233855 -0.031972203 -0.14618525 -0.013904365
-0.013862062 0.046541248 -0.055100232 0.04100794 0.08104392 0.1140161 -0.13461025 -0.110019214
0.036255646 0.028360467 -0.04404749 -0.15074445 0.07747047 0.033821043 -0.03872873 0.10361675
0.048629288 -0.027662458 -0.061528675 -0.0063728164 -0.094633386 -0.037593104 0.00053130666 -0.10403304
0.10652636 0.022828912 -0.117215976 -0.06626856 -0.05070507 -0.15721661 -0.023659464 0.08774799

layer.2.bias f4 [64]
00000000: 630a a6bd c8b3 8c3d 876c 353e 09dc 90bc
00000010: 775f 543e 484f 933d bb18 6e3e 165e b73d
00000020: 055e 043e 0fa4 593d f056 b5bc 0ade 91bd
00000030: 9d65 403e b414 903d 54e1 fcbd a0da 33be
00000040: 2515 843e c049 2cbd f8e6 ecbc abc5 86bd
00000050: 84b7 f1bd 1d16 073b 7750 86bd 5662 b8bd
00000060: 0a90 3d3e e62e 993d 8e1d 14be 7d1d 3d3d
00000070: a1e9 243d 1e47 233e 6341 24be 3dde 3c3e
00000080: d946 4e3d 5ec5 15be 6ad5 aebd cf1d a5bd
00000090: 4a3c aabd 9486 103d ed20 8f3d fadb e8bd
000000a0: 9b86 b9bd 49f8 f93d 5d70 df3d 0e1c 23be
000000b0: 85de 323e f6a6 2bbe d5bc ac3e 61f3 0ebe
000000c0: e997 b0bd 064f 983d ec3e 083e 8571 30bd
000000d0: 2d1c 183d d764 5f3e 6d44 37bc 22b3 1bbb
000000e0: afdd a63d 77b4 e33d b464 233e ec27 723d
000000f0: e1ff 6cbd 52a9 843b 6296 00bd 6bfe 673e
-0.0810745 0.06870228 0.17717181 -0.017683046 0.20739542 0.07192856 0.23251621 0.08953492
0.1292649 0.053134974 -0.022136182 -0.07122429 0.18788762 0.07035199 -0.123476654 -0.17563868
0.25797382 -0.04206252 -0.028918728 -0.06580671 -0.11802581 0.0020612546 -0.06558316 -0.09003131
0.18511978 0.07479648 -0.14464399 0.0461707 0.04026187 0.15945098 -0.16040568 0.18444152
0.050360534 -0.14626071 -0.08536799 -0.08062326 -0.083122805 0.035284594 0.06988702 -0.11370082
-0.09058877 0.1220556 0.109101035 -0.15928671 0.17467697 -0.1676291 0.33737817 -0.13960029
-0.086227246 0.074369475 0.13305253 -0.04307701 0.037136246 0.21815811 -0.011185748 -0.0023757895
0.081477515 0.11118405 0.15956384 0.059120104 -0.057861213 0.004048505 -0.031393416 0.22655647

fc_mean.weight f4 [1, 64]
00000000: ac28 3140 5b0a 48bf a0c6 f3bc 1089 853c
00000010: 8118 2e3d b9d3 003c e6ab 463e c9d9 9dbe
00000020: 91f4 2abe e63c 513f baf3 ec3c a463 ad3d
00000030: f28f 5e3e b925 f8be c3d9 923d 0572 1dbf
00000040: cfd9 edbe 0f1e d1bf 7f68 acbc 42bd a73b
00000050: 2c1e f93c 5713 6c3e 3ace 81bb 168e 5dbf
00000060: a613 b03f 14b4 f7be fe27 28bd 75f7 f4be
00000070: 9aad c9bb 63b7 6cbe 76b4 d03e 2994 15bf
00000080: f5ca 08bd ee7b f63c 2d52 9a3c b915 8a3e
00000090: e120 07bc 1235 b0bd ff3e 0cbd cd7e 053f
000000a0: ca61 c4bc e0fb d5bf 172c e9be 6843 84bf
000000b0: 9804 5bbe 6f2d 393d 35c3 583f 3617 253f
000000c0: f3a0 ae3e acc4 cfbe 7367 413f 9d3f 5ebf
000000d0: 6e41 b93c 76d9 2abf c832 a3be 646d 863d
000000e0: f55a 9dbc b3ec 8fbe 3d99 0ebf 91d9 963d
000000f0: 06b8 cb3f 954e 8ebe 38e3 7c3d 4a25 373d
2.7681074 -0.781408 -0.029757798 0.016300708 0.042503837 0.007862979 0.19401512 -0.3083022
-0.16694857 0.8173355 0.028924812 0.084662706 0.21734598 -0.4846628 0.07170441 -0.61502105
-0.46455237 -1.6337298 -0.021045921 0.005118997 0.030409895 0.23054253 -0.0039613517 -0.8654493
1.3755996 -0.48379576 -0.041053765 -0.47845045 -0.006154728 -0.23116831 0.4076268 -0.584292
-0.03339668 0.030088391 0.018838013 0.26969698 -0.008247585 -0.08603872 -0.034239765 0.5214661
-0.02397241 -1.6717491 -0.4554145 -1.0333071 -0.21388471 0.045209344 0.8467286 0.6448854
0.3410717 -0.40579736 0.75548476 -0.86815816 0.022614207 -0.6673807 -0.3187468 0.06563833
-0.01920841 -0.28110275 -0.55702573 0.07365716 1.5915534 -0.27794328 0.06174013 0.044713296

fc_log_std.weight f4 [1, 64]
00000000: bb74 4dbe b816 d23e 6821 8bbe f8d7 ba3d
00000010: f7a8 e7bd 9b4a 673d dc29 80be 1ab0 31bd
00000020: 7548 503e 61c8 2b3e 2c86 f63d 0b89 963d
00000030: b3f2 80be 0144 0e3d 67f3 34bd 5750 5c3e
00000040: 1d2f 12be 9b83 293e 5852 dcbc 514a 72bb
00000050: a318 a83d 6648 993d 7024 983d 9358 a0be
00000060: 9432 30be f7be 803e cdc2 a8b9 2d02 bcbd
00000070: 477c 873d f655 9bbe f493 c33e d69d 863e
00000080: d4f0 9d3d cd35 59bc 93d1 c23d 394a 103e
00000090: 1b57 bd3d 0c0b 573d 2135 693d 25a7 29be
000000a0: 65c9 e33d 45a9 4e3f 1bc4 1fbe 9649 f93d
000000b0: 4bc3 fa3d 9e5b 85bb b702 7d3d b2e8 033e
000000c0: a98c ec3e 8a04 103e 2e6b f23e f4e6 7e3e
000000d0: 49b9 f1bb 4790 753c 1b60 4f3d 3f30 173d
000000e0: 915c 81be 9157 f33c 64b6 e5be df23 143d
000000f0: 8a5a 523f 0693 dfbd 6fe7 e63c 9bf9 73be
-0.2006406 0.41032958 -0.27173924 0.09123224 -0.11311524 0.056467634 -0.25031936 -0.043380834
0.2034014 0.16775657 0.1203731 0.073503576 -0.25185165 0.034732822 -0.04417744 0.21515022
-0.14275785 0.1655411 -0.026894733 -0.0036970566 0.08207824 0.07484512 0.07428825 -0.31317577
-0.17206794 0.25145695 -0.00032188595 -0.091801025 0.06615501 -0.3033902 0.38198817 0.26292294
0.0771195 -0.013257456 0.09512629 0.14090814 0.0924513 0.05250077 0.056935433 -0.16567667
0.11122397 0.80727035 -0.15602152 0.121722385 0.122442804 -0.0040697595 0.061770167 0.12881735
0.46201065 0.14064232 0.47347397 0.24892789 -0.007376824 0.014988012 0.050628763 0.036911245
-0.25265935 0.02970484 -0.44865716 0.03616702 0.821694 -0.10916714 0.028186528 -0.23825686
